src/notebooks/model.ckpt (torch, 429925 bytes, 16 tensors)

conv1.weight f4 [16, 1, 3, 3]
000000 13 6c 42 3e a8 ee 30 3e 2e a1 58 be 28 0e 28 3d
       0.1898654 0.1727854 -0.21155235 0.041029125
000010 ad 5b 44 be db 1c 50 bd 50 bd 80 3e d9 d7 22 3e
       -0.19175597 -0.05080877 0.25144434 0.15902652
000020 b0 21 e5 3c 6a 7f d5 be 31 76 af bd 02 4a 96 3d
       0.027970165 -0.41698772 -0.08567465 0.073383346
000030 ff f1 89 be af 75 b3 bc a8 ff 98 3e 3c d5 49 3d
       -0.2694244 -0.021906702 0.2988255 0.04927562
000040 62 b3 8e be 48 dc 9b 3e 43 31 af 3d 33 61 ce 3d
       -0.27871233 0.304415 0.08554318 0.10077133
000050 f1 d2 ca 3c 4e 4d 7c 3e de b6 b0 3e 96 c5 82 3e
       0.024758788 0.24638864 0.34514517 0.2554137
000060 ba 16 77 bc 46 57 66 3e 37 1a 28 bd 79 8e d1 3c
       -0.015081102 0.2249423 -0.041040625 0.025580632
000070 7e b7 0d 3e c1 0e 40 3d ff aa 48 be 9c 89 a5 be
       0.13839528 0.04688907 -0.1959648 -0.3233155
000080 97 8c 98 3e 1b df 4d be 56 82 5e 3e 9c 8d fa 3c
       0.29794762 -0.20104639 0.21729407 0.030585103
000090 2b 53 88 3e 21 3f 00 be 33 11 99 be 08 19 ab 3d
       0.26625952 -0.12524082 -0.29895934 0.08354384
0000a0 fa 21 88 3e e3 7a 70 be 15 94 bb bd 0b 6a 59 3e
       0.26588422 -0.23484378 -0.09159104 0.21231858
0000b0 bd fb 3a 3e a9 14 15 3e 63 fc 23 be 26 eb 9d bd
       0.18260093 0.14558662 -0.16014247 -0.07710867
0000c0 21 80 11 3e dd 79 93 be 4f ec 77 3e b5 35 70 be
       0.14209034 -0.28803912 0.24211238 -0.23457988
0000d0 92 f3 de bd d0 5a 76 3e 68 c7 65 be 4a cf 7d be
       -0.10886301 0.2405808 -0.22439349 -0.24786106
0000e0 06 d0 a0 be a1 63 e3 bd 78 08 9c bc 7e 8c 95 bd
       -0.3140871 -0.11102987 -0.019047007 -0.073021874
0000f0 7e c5 c2 3e cb 1b 6a 3e 02 6c 0e 3e 8c f5 9c bd
       0.380413 0.22862165 0.13908389 -0.07664022
000100 97 f5 7f 3e 63 bd a1 be a2 42 98 3e f2 7a 65 bd
       0.24996029 -0.31589803 0.29738337 -0.056025453
000110 95 04 3e be 2c 70 1d bc 84 61 25 3e 0b 12 f9 bd
       -0.18556435 -0.009609263 0.1615048 -0.121616445
000120 4c 9f 80 be f9 40 a8 3d 36 c8 69 3e 59 4b 8a be
       -0.25121534 0.082155176 0.2283028 -0.2701061
000130 0a 58 74 3c 3e c6 7b 3d 82 bb dd be b9 ee 23 bd
       0.014913568 0.061468355 -0.4330712 -0.040022586
000140 df 7a f5 3d 46 b4 59 3d 63 ea 49 3e 3a 3b 24 3d
       0.119863264 0.053150438 0.19718318 0.040095545
000150 d3 a9 e9 3c be 2c eb 3d 63 c3 2f 3e 06 82 8e be
       0.028523361 0.11483143 0.17164378 -0.27833575
000160 77 73 8a be e9 9f 2c be d4 8c 9e be e3 3b 80 3c
       -0.27041218 -0.16857876 -0.30966818 0.015653556
000170 fa 61 0a be f6 9c 99 be 33 19 08 bd 9e 90 93 3e
       -0.13513938 -0.30002564 -0.033227157 0.28821272
000180 e9 f7 ab bb aa 75 bd 3e 00 7d 3a 3e 6b ba 9b 3e
       -0.005248059 0.37003833 0.18211746 0.30415663
000190 1b da d0 bd b6 64 02 be 54 fc b5 be 9b 57 8f be
       -0.1019785 -0.1273373 -0.35544074 -0.27996525
0001a0 09 ea 04 3e d4 50 cf bd db 06 9b 3e 08 82 fa 3b
       0.12979902 -0.101228386 0.30278668 0.0076448955
0001b0 7c 6f 0d be 65 51 e8 bd 30 5e 6e be 4a ac 99 bd
       -0.13812059 -0.1134365 -0.23278117 -0.07503565
0001c0 3e 85 4d bd 4e 42 da bd ba b3 4d be 42 5d fc bc
       -0.050175898 -0.10657178 -0.20088091 -0.030806188
0001d0 01 5f 96 3e a6 6b d3 3d 4d 03 81 3e 09 87 d2 bd
       0.29369357 0.10323267 0.2519783 -0.10279662
0001e0 18 61 8c 3e 73 5f de bd 80 b0 68 be 18 1e 57 be
       0.27417827 -0.10858049 -0.2272358 -0.21007574
0001f0 2a 5b 4e be a6 0e 1d 3d 93 37 37 bc 01 ea e3 3c
       -0.20151964 0.038344048 -0.0111826835 0.027821543
000200 cb 60 7f 3e da 76 d9 bd d0 36 8b be 19 c6 24 bb
       0.24939267 -0.10618372 -0.27190256 -0.002514249
000210 92 26 a0 3d 1e 85 5b 3d 24 8d 58 be 01 cc b4 be
       0.07819857 0.053593747 -0.21147591 -0.35311893
000220 f0 af 43 be fe a9 bb bb 39 fc a1 3e b8 56 27 be
       -0.19110084 -0.0057270518 0.31637743 -0.16341674
000230 bc 87 c7 3c 14 bd d2 3d 48 5d 93 3e b8 16 07 bc
       0.024356715 0.1028997 0.28782105 -0.008245163

conv1.bias f4 [16]
000000 c0 5e 7c be b9 04 62 be 19 2b c5 3e 3f 14 f5 3d
       -0.2464552 -0.22072114 0.38509443 0.11966752
000010 2c f6 9d be c9 df 33 3e a9 6f 4e bd 3f 08 09 3d
       -0.30851877 0.17565836 -0.050399456 0.03345513
000020 99 0e 98 3e 79 94 89 3d 6e 9d 89 3e b2 c7 27 be
       0.29698637 0.06717772 0.26877922 -0.16384771
000030 15 05 3e 3c 3e 5a 56 be 9b 82 74 bc 29 dd e1 be
       0.011597891 -0.20932862 -0.014923717 -0.44114044

norm1.weight f4 [16]
000000 c2 bd 46 3f e0 be 73 3f 5b 85 40 3f 18 35 52 3f
       0.776333 0.9521313 0.75203484 0.82112265
000010 2f d2 61 3f d2 85 66 3f 79 d2 89 3f 0a 8d 81 3f
       0.8821134 0.90047944 1.0767356 1.0121167
000020 7d ef 7e 3f 43 b0 8c 3f 30 ef 67 3f 17 ff 93 3f
       0.9958418 1.0991291 0.90599346 1.1562222
000030 87 c4 88 3f 5d be 98 3f f1 da 9c 3f ee 91 6a 3f
       1.0684975 1.1933094 1.2254316 0.9162892

norm1.bias f4 [16]
000000 53 21 c9 be 64 2c 72 be bc 03 61 be bc 21 90 bd
       -0.39283237 -0.23649746 -0.21974081 -0.07037684
000010 71 82 ed be 62 ea 30 be c8 bb 5f bd 89 ee 06 be
       -0.4638858 -0.1727691 -0.05462244 -0.13176931
000020 84 1e a2 bd d5 9d 27 be c9 fe 41 be d3 36 69 be
       -0.07915977 -0.16368802 -0.18944849 -0.2277482
000030 ce 4b 46 be f1 d9 03 be a8 17 b0 bd cb 0f 8a bd
       -0.19364855 -0.12876107 -0.08598262 -0.067412935

norm1.running_mean f4 [16]
000000 03 7a 4b be c7 de 87 be 73 df 0a 3f ad 20 ff 3d
       -0.19870763 -0.26537153 0.54247206 0.12457404
000010 17 71 8c be c2 9f 24 3e 16 d1 a8 bd 2c 1b c9 3c
       -0.2743003 0.16076568 -0.08243005 0.02454909
000020 7b b4 70 3e 5a 1e 57 3d 4c 75 8e 3e 4c fc 49 be
       0.23506348 0.05251918 0.27823865 -0.1972515
000030 01 1e 99 bd d2 d6 6d be 17 d6 1b bd 05 e3 e1 be
       -0.07476426 -0.23226479 -0.03804597 -0.44118515

norm1.running_var f4 [16]
000000 70 00 89 3c 75 2b 36 3d cb fa dd 3d 86 53 46 3c
       0.016723841 0.044475038 0.108388506 0.0121048745
000010 99 70 8a 3c 4d ce 38 3c fd e1 25 3d 2d 20 66 3c
       0.016899394 0.011279655 0.040498722 0.014045757
000020 17 7b 32 3d 11 de 90 3c e2 ab 23 3d 8e f9 62 3c
       0.04357442 0.017684015 0.039958842 0.013853444
000030 66 ff 24 3d e8 ca 9b 3c c3 cb ef 3b ce 67 84 3c
       0.04028263 0.019017652 0.0073179915 0.01616278

conv2.weight f4 [32, 16, 3, 3]
000000 0f 46 b7 bd bb 1a 9e bd b0 59 18 bc 45 fb 09 3c
       -0.089489095 -0.07719942 -0.009298727 0.008421724
000010 05 86 87 bd 03 35 92 bd 54 3f 59 bd db fc 70 3c
       -0.06617359 -0.071390174 -0.05303891 0.014708723
000020 1c f8 50 3d d9 6d e5 3b 91 67 53 bd 1c 34 d8 3b
       0.051017866 0.0070016203 -0.05161244 0.006598009
000030 3a 17 5b bc c5 60 f1 3d 6f 59 71 bc 22 bd 6b 3c
       -0.013372237 0.117860354 -0.014730795 0.0143883545
000040 26 ff 35 bd 1f 9f be bd 8c 37 03 bd ed e9 90 bd
       -0.04443278 -0.09307694 -0.032035396 -0.07075868
000050 31 6e e5 bc 01 bd 97 bd d6 1c a6 3b 64 4b 33 bb
       -0.028006645 -0.074090965 0.0050693555 -0.0027358169
000060 64 4f 8a 3d 4f b9 ea bc f3 7c 1c bd 56 86 0b 3c
       0.06753424 -0.028652815 -0.0382051 0.008515915
000070 d7 7f 34 bd 42 e7 15 3a f3 b0 c7 bc 67 a9 1a 3e
       -0.04406723 0.0005718359 -0.024376368 0.15103684
000080 63 9a e1 3b d9 dc bd 3d e2 81 d3 3c 4b 74 54 3d
       0.0068848594 0.09270639 0.025818769 0.051868718
000090 3f ae b8 bd 05 8e 3a 3d c4 59 a6 3d c4 3c 77 bd
       -0.0901761 0.045545597 0.0812259 -0.060360685
0000a0 99 f0 ce bd 17 58 12 be 92 a2 f1 bc 93 fa 0e be
       -0.10104484 -0.14291416 -0.029496465 -0.13962774
0000b0 cc 7e a1 bd b9 3d 31 bd 4e d4 a5 bd b3 b6 d6 bc
       -0.07885513 -0.043271754 -0.080971345 -0.026210165
0000c0 bd 15 b3 3d 20 42 cd 3d 4c 4e c5 bd a2 bb ae 3d
       0.087443806 0.10022378 -0.096340746 0.08531882
0000d0 9e 38 02 bd 26 13 a0 3d eb 93 cb bd 5c 2a f8 bd
       -0.031792276 0.07816152 -0.099403225 -0.121174544
0000e0 5b 1d b6 3c 87 51 23 3c 35 a9 d6 3d 21 5e ce bc
       0.022230795 0.009968168 0.104814924 -0.025191369
0000f0 64 40 92 3d 32 67 70 bd a6 fa d4 bd 73 b6 e9 bd
       0.07141188 -0.058692165 -0.1039937 -0.114117526
000100 89 d4 16 3c 1d 5d ed 3c f1 87 e5 bd 16 ae 96 bd
       0.009205946 0.028975064 -0.112075694 -0.07357423
000110 b8 7f d5 bd c6 3d 8b bc 04 47 23 3d c1 4f df bc
       -0.10424751 -0.01699723 0.039862648 -0.02725971
000120 9a 77 90 3c ef 81 d8 3b ab bd 3f bc 37 92 1f 3d
       0.017635155 0.006607286 -0.011702935 0.0389578
000130 06 43 03 bb b7 3f fd bd 00 94 7b bb f8 e7 05 be
       -0.0020028963 -0.12365668 -0.0038387775 -0.1307677
000140 17 66 2f bd 12 6e f3 3c c1 53 02 3d d2 e5 8d bc
       -0.04282197 0.029715572 0.031818155 -0.0173215
000150 01 6d a2 bd 2f 38 00 be 15 0f c1 3d a0 d7 73 be
       -0.07930947 -0.12521432 0.09426705 -0.23812723
000160 bb 11 b1 3c c9 85 8c ba 2e b0 59 bd fe 42 6c 3b
       0.0216149 -0.0010721023 -0.053146534 0.0036050673
000170 b7 0c af 3c 63 f7 1f 3e 8f 1b c1 3d e0 8d ea 3d
       0.021368368 0.15621714 0.094290845 0.11452842
000180 8e 46 89 3d 0b c0 c5 3c 0f 8e 61 bd e0 62 f3 bc
       0.0670291 0.024139425 -0.05506712 -0.029710233
000190 a6 bb 37 be 8c 2f 4e 3d 6f d8 c7 3b 9d 37 24 3e
       -0.17942676 0.050338313 0.006098799 0.1603684
0001a0 e2 43 ac 3d 7b fe 62 3e 18 ad ac 3d c8 53 d4 3d
       0.08411385 0.22167389 0.084314525 0.103675425
0001b0 c5 2b ab 3c 75 02 4a bd 40 b0 51 3d 22 e6 1c 3e
       0.020894894 -0.04931875 0.051193476 0.15322164
0001c0 ce b7 67 3e e5 f5 ca 3d dc 42 54 3d 14 36 0d 3e
       0.2262871 0.09910182 0.051821575 0.1379016
0001d0 08 3d 45 3a 4b a2 e0 bd 81 dd 60 be 4b 96 5a bd
       0.0007524048 -0.10968455 -0.21959497 -0.053365987
0001e0 85 8c 99 bd ba d1 0b 3d f4 87 5b 3c 67 c0 fa 3c
       -0.07497505 0.034135558 0.013399113 0.030609323
0001f0 ef 6d 51 3e 10 f0 08 3e b2 ef 0a 3e 41 9d 85 3d
       0.20452093 0.13372827 0.13567999 0.065241344
000200 d9 17 9e bd fd 68 78 3d 3e 0f c1 bd 3c d5 3c be
       -0.07719392 0.060647 -0.09426735 -0.18440717
000210 da 73 91 bd 9d a3 0f be f5 00 bd 3d 7c 35 8d bd
       -0.07102175 -0.14027257 0.09228698 -0.06894967
000220 0b 80 20 be 6f 6e 10 bd 63 b3 f9 3b a3 cf 3b 3d
       -0.15673845 -0.035261568 0.0076202615 0.045852315
000230 0c 39 54 3d db 94 2e 3d da 48 93 bd 04 fa 79 bd
       0.051812217 0.04262243 -0.0719163 -0.06102945
000240 4d 68 17 bd 6b 13 9d 3c 02 a9 2b 3d 3c e3 f1 bc
       -0.036964703 0.019174298 0.041909225 -0.0295273
000250 10 70 00 3e 27 0e 55 3d 17 93 c8 bd 2f 7f 68 3d
       0.12542748 0.05201545 -0.0979368 0.056761917
000260 e9 26 d5 3d 0e 41 ee bc aa f3 c5 bc 7c e2 c8 bd
       0.10407812 -0.029083755 -0.02416404 -0.098088235
000270 99 a0 17 3d 4d bd 95 3d bb 22 66 bc a2 45 20 3e
       0.037018392 0.07311497 -0.014046366 0.15651563
000280 ba 7b 73 3d 79 1f 07 3d 48 01 c8 3d 82 e2 90 3d
       0.059444167 0.032989 0.097658694 0.07074453
000290 10 05 7b bd 4e e3 3f bd 25 1e d8 3b b8 2b 6a bd
       -0.061284125 -0.046847634 0.0065953904 -0.0571706
0002a0 5c 58 08 bc 9b 76 7c 3d 7f 47 42 3d 79 88 69 3d
       -0.008321848 0.06163655 0.047431465 0.057014916
0002b0 28 4f 8e bd 2e 2b 17 be b4 07 74 3d f5 12 fd 3c
       -0.069486916 -0.14762565 0.05957766 0.030892828
0002c0 a3 8c 23 bd 09 06 60 3d 4a dc 16 bd 02 0b 9f bd
       -0.039929044 0.054693256 -0.036831178 -0.077657714
0002d0 62 a5 2c 3d fd 25 d4 3d 4a 0f ee 3b a4 0e 92 3d
       0.04214991 0.10358808 0.007265006 0.07131699
0002e0 d4 fd f9 3d 80 4b 1d 3c 04 b0 22 be f3 40 15 bc
       0.12206617 0.00960052 -0.15887457 -0.009109723
0002f0 8c fa 40 bd 58 96 8f bd 3b cc ae 3b 23 8c 39 bd
       -0.04711394 -0.07011098 0.0053344048 -0.04529966
000300 7f f9 e3 bb d9 9f 42 3c 59 ea cf bd 91 ef 1f 3c
       -0.0069572325 0.011878931 -0.1015212 0.009761707
000310 37 b1 b3 3b f1 fc 9f bd 22 59 b9 3c fc 92 0b bd
       0.005483772 -0.078119166 0.02262551 -0.034075722
000320 43 44 6e bc ec 61 fd bb ed be 21 bd 01 74 d3 bd
       -0.014542642 -0.0077326205 -0.03948872 -0.1032486
000330 15 15 50 bd 40 d5 f6 bd 5e e2 c8 bd 78 b1 36 bd
       -0.050801355 -0.12052393 -0.09808801 -0.04460284
000340 23 ca ee bb 2d b4 0f 3e 39 ef 60 bd 6e 03 ef 3d
       -0.00728728 0.14033575 -0.05491564 0.11670576
000350 e1 7a 8a 3d ff 92 0f 3d fe 3b d7 3d 24 8f 7f 3d
       0.067617185 0.035052296 0.105094895 0.06239237
000360 b5 08 a9 3d df ea 15 3d 75 40 3d bd 92 4f 2d 3e
       0.08253614 0.036600944 -0.04620405 0.16924885
000370 f7 07 5b bd 15 db 2c 3d 05 03 d4 bb ac 0e 77 3d
       -0.053474393 0.04220112 -0.0064700865 0.060316727
000380 f9 4d 47 3d 36 b2 ef 3d 39 a4 25 bd 7f 1e 06 be
       0.048658345 0.11703913 -0.040439818 -0.13097571
000390 59 c6 70 bb d2 c6 19 be 1c 34 a0 bd 5d e9 3a be
       -0.0036739318 -0.1501725 -0.07822439 -0.18253084
0003a0 c0 59 c3 bd a1 d5 51 3c fa 28 dd bd 69 ea a8 bd
       -0.09538603 0.012807281 -0.10798831 -0.08247835
0003b0 1c f5 31 be ea 6d fb 3d 2f 61 95 bc 12 18 02 be
       -0.17378658 0.12276824 -0.018234817 -0.12704495
0003c0 53 a0 fd 3d ea 5b 47 3c 74 09 89 bc 06 12 66 bd
       0.12384095 0.01216791 -0.01672814 -0.056169532
0003d0 82 a6 22 3b 33 0d 52 be 3c b0 92 3d f6 c5 a8 bd
       0.0024818485 -0.20512848 0.0716252 -0.08240883
0003e0 9d e9 3a be 05 c9 5e 3d bc 9e dd bc 15 d7 00 bd
       -0.18253179 0.054390926 -0.02705323 -0.03145512
0003f0 26 e5 f6 bd 42 76 37 bd 18 75 c4 bc 2f 63 21 bd
       -0.12055425 -0.044790514 -0.023981616 -0.03940123

conv2.bias f4 [32]
000000 8e 47 8c 3c f7 62 ca ba ec dc 32 bd 10 19 35 bd
       0.017123964 -0.0015440871 -0.04366772 -0.044213355
000010 a6 25 70 3c 2a 79 27 bd d3 58 73 bd 5e 91 8e bc
       0.014657414 -0.040887035 -0.05941088 -0.0174033
000020 0a a6 b5 bd 51 b2 59 3c 50 e2 1d 3d 0c e6 c0 3d
       -0.0886956 0.013287143 0.038545907 0.09418878
000030 dc 45 0e be ef 20 9f bd 25 6b 98 3d 22 46 e4 bd
       -0.13893837 -0.077699535 0.07442311 -0.11146189
000040 de 04 20 3c 89 29 88 bb bd 37 4f 3d 4b 84 9c 3c
       0.009766785 -0.004155342 0.050590266 0.019106051
000050 de 5a 58 3d cc bd 8d 3d 17 42 f3 3c 96 5e e1 3d
       0.052821033 0.069209665 0.0296946 0.11004369
000060 73 52 24 bd 5d 6b 79 bd 43 58 95 bd e3 33 59 3e
       -0.040117692 -0.060893405 -0.07292225 0.212112
000070 13 76 f5 bc 42 32 3b 3d 17 b9 80 3c d7 5f 6f 3c
       -0.029963529 0.045702226 0.015713258 0.014610252

norm2.weight f4 [32]
000000 fc 79 75 3f 23 4e 74 3f b4 6d 72 3f ce 24 78 3f
       0.9588926 0.9543173 0.94698644 0.9693116
000010 8b 77 78 3f a5 74 5a 3f 1b 09 7e 3f 7f 8e 47 3f
       0.9705741 0.85334235 0.99232644 0.77951807
000020 5e 92 6d 3f 30 ea 73 3f a7 99 7f 3f 3d 3b 5b 3f
       0.92801464 0.95279217 0.9984383 0.85637265
000030 01 8c 6f 3f 75 dc 58 3f f3 32 77 3f 09 ae 53 3f
       0.93573004 0.8471139 0.9656212 0.8268743
000040 44 09 69 3f 3a b3 71 3f 27 48 47 3f cd 12 64 3f
       0.91029763 0.94414103 0.7784447 0.8909119
000050 30 5e 63 3f 6f 48 55 3f c4 2c 49 3f 15 70 7a 3f
       0.88815594 0.8331365 0.7858393 0.97827274
000060 83 3b 5f 3f a8 01 40 3f aa 41 53 3f 1a 4e 84 3f
       0.8720018 0.7500253 0.8252207 1.0336335
000070 95 91 69 3f 9f 49 4a 3f 94 59 7a 3f 60 4d 82 3f
       0.91237766 0.79018587 0.97792935 1.0179863

norm2.bias f4 [32]
000000 d1 03 c9 be c3 ee 99 be 09 5d 97 be 5a f6 99 be
       -0.39260724 -0.30064973 -0.29563168 -0.30070764
000010 bb 43 5f be 01 c2 db be aa 98 45 be c9 45 c5 be
       -0.21803181 -0.4292145 -0.19296518 -0.38529804
000020 93 cd e5 be 9a 75 d1 be d9 cb b7 be 46 37 b3 be
       -0.44883403 -0.40910035 -0.3589771 -0.35003108
000030 94 17 81 be 23 96 e7 be d6 f5 89 be 34 43 ae be
       -0.252133 -0.45231733 -0.2694537 -0.34035647
000040 e5 5e ac be 37 02 32 be 93 29 cb be bc 21 82 be
       -0.3366615 -0.17383657 -0.39680156 -0.25416362
000050 73 4f cb be 53 86 b2 be 3b d6 b7 be fa 28 8b be
       -0.39709052 -0.34868106 -0.35905632 -0.271797
000060 ab d8 bf be ed 0d e0 be 3b 5b e7 be 0a d6 9f be
       -0.37469992 -0.43760625 -0.4518679 -0.31217986
000070 18 06 3c be bc 42 e5 be 7c 35 68 be dd 49 8e be
       -0.183617 -0.44777477 -0.22676653 -0.27790728

norm2.running_mean f4 [32]
000000 74 07 a3 be d1 8c d7 be c1 98 e8 be 48 5c a0 be
       -0.31841624 -0.42099622 -0.45429042 -0.31320405
000010 3f 4b 85 be 98 32 4d bf 14 51 02 bf f5 34 ee be
       -0.2603397 -0.80155325 -0.50904965 -0.46524778
000020 3e b3 4b bf d4 13 d9 be a5 7b c3 be e0 74 0a be
       -0.79570377 -0.4239794 -0.3818027 -0.13521147
000030 f2 ac 14 bf fe 8d 01 bf 4b a3 cd be 00 9c 15 3f
       -0.58076394 -0.5060729 -0.40163645 0.5844116
000040 65 c7 9a be 52 8d 29 bf 8b c0 56 3f c4 ba 08 bf
       -0.3023025 -0.6623126 0.8388755 -0.5340998
000050 d3 74 4a bf 54 8a 17 bf b2 10 22 bf f0 91 ac be
       -0.7908451 -0.59195447 -0.63306725 -0.3370509
000060 c2 9d ef be 10 69 82 be d8 6b 3a bd 0a 8e dc bd
       -0.46800047 -0.2547078 -0.045513004 -0.10769279
000070 ed b2 07 bf 4c 70 0a bf dd 2e c4 be d4 35 cb 3c
       -0.53007394 -0.540776 -0.38317004 0.02480594

norm2.running_var f4 [32]
000000 03 a3 cf 3f 67 3b a8 3f 50 5c f1 3f 02 e5 ad 3f
       1.6221622 1.3143128 1.8856297 1.3585513
000010 d3 84 00 40 39 4e 47 40 62 5d e7 3f 47 39 81 3f
       2.008107 3.1141493 1.8075373 1.0095605
000020 3b f4 ff 3f d8 9c aa 3f db 0c e6 3f 3d e9 97 3f
       1.9996408 1.3329115 1.7972673 1.1868054
000030 c0 b0 db 3f 7a 86 96 3f 2a 4c 06 40 c6 4e bc 3f
       1.7163315 1.1759789 2.0983987 1.471154
000040 a5 59 af 3f 20 25 29 40 d3 f6 08 40 0e 47 16 40
       1.3699232 2.642891 2.140065 2.3480868
000050 80 ec 68 3f 91 72 9b 3f 25 eb e5 3f 85 0f d1 3f
       0.9098587 1.2144338 1.7962385 1.6332861
000060 66 74 99 3f 14 a6 8c 3f 73 63 61 3f 97 79 7f 3f
       1.1988647 1.0988183 0.8804237 0.99794906
000070 ae ba 05 40 6d 52 b3 3f a5 9a de 3f 44 10 9f 3f
       2.089519 1.4009529 1.7390944 1.2426839

fc.weight f4 [64, 1568]
000000 90 3e d6 3b 12 3b 69 3d 84 59 91 3d 77 e7 3d 3d
       0.0065382197 0.0569411 0.07097152 0.04636332
000010 c1 42 90 3d a2 e6 28 3d e7 85 a6 3c db d5 fa bb
       0.07043982 0.041235574 0.020327521 -0.007654888
000020 7a 55 86 bc 11 5b c2 3c a8 9f 32 3c 90 57 75 3d
       -0.01639818 0.023725064 0.010902323 0.05989796
000030 56 47 9b 3d 76 a3 2f 3d a0 4a c8 bb 36 6c 0c 3d
       0.075819656 0.042880498 -0.0061124116 0.034282885
000040 b6 f0 dc 3d 7b 31 24 3c 9d 2e c2 3c 9e ca f5 3c
       0.107880995 0.010021563 0.023703868 0.030003842
000050 93 20 bf bd c1 8a c1 bc 8c 10 31 3c d2 57 72 bd
       -0.09332385 -0.023625733 0.010807168 -0.059165783
000060 7a 7b 25 3d df 3c 26 3d 85 a2 61 bd 00 b2 72 bd
       0.04040096 0.040585395 -0.05508663 -0.059251785
000070 4d 69 65 bd 91 c5 bc bc 04 9b cc bc 13 26 31 3c
       -0.056008626 -0.023043426 -0.024976261 0.0108123
000080 21 68 29 bd 4f d8 1e bd 26 b5 9b bc 00 12 28 bc
       -0.04135907 -0.038780507 -0.019007277 -0.010258198
000090 6f f5 43 3d b0 bc 83 3c db 0e d2 3c ee ea ac 3b
       0.047841486 0.016081184 0.02564185 0.0052770292
0000a0 51 c3 8c 3d 27 ac 3f bb 34 86 3e 3d 8e 6e ef bb
       0.06873191 -0.0029246898 0.046514705 -0.0073068803
0000b0 4e 33 4a bc 8f 09 06 be 15 e5 51 3d 0e 66 be bd
       -0.012341334 -0.13089584 0.05124386 -0.09296809
0000c0 9e 3f e8 bb 18 f8 90 bc ea 85 3b bd 04 db 25 3c
       -0.007087662 -0.017696425 -0.045782007 0.010123018
0000d0 e3 2e ea bb b8 1f b5 3c bf 58 b6 bc 8c a4 83 bd
       -0.0071467026 0.022109851 -0.022259114 -0.06427869
0000e0 1e 54 47 bd f5 fa 79 3c 86 de 06 3d 92 9d d4 3c
       -0.048664205 0.015257587 0.03292706 0.025954042
0000f0 b5 ee 41 3d 34 8e aa bc a4 b4 90 bb 1a 6f af bb
       0.04734679 -0.02081976 -0.0044160653 -0.0053538205
000100 27 f8 16 bd 34 67 2d bd ad 77 8f bd cb f4 86 bd
       -0.03685775 -0.04233475 -0.07005248 -0.06589659
000110 89 a5 79 bd c3 7e 00 3d 12 b6 22 bd c2 95 8a bc
       -0.060948882 0.03137089 -0.039724417 -0.016917113
000120 f4 fd 0f bd df e1 d5 bb 39 6f 50 3c 2b 11 21 bd
       -0.035154298 -0.00652717 0.01272183 -0.039323013
000130 c2 be 79 bd 51 3d 03 bd 2d 17 b7 3b da 08 c0 bd
       -0.060972936 -0.032040898 0.0055874796 -0.09376688
000140 2c 12 cf 3c f9 ba a2 3d b6 b2 7c 3d d8 35 d3 bc
       0.02527722 0.079458185 0.06169387 -0.02578251
000150 8c 58 18 bd 58 ff 84 bd c2 8c 1f bd 8a 7a c1 3c
       -0.03719382 -0.064940155 -0.038952596 0.023618001
000160 93 0f 02 3d f8 4c 97 3d 62 b2 06 bd 9e 8c 52 bd
       0.031753134 0.073877275 -0.032884963 -0.051403634
000170 1e 97 fb bb 0f 5d 6c bd 03 17 a4 bd ac 3d 57 bd
       -0.0076779267 -0.057705935 -0.08012202 -0.05254905
000180 e0 fa b3 bc 9a 4a 02 bd 44 fe 03 bd da 13 25 3d
       -0.021970212 -0.031809427 -0.03222491 0.040302135
000190 a0 1f c8 bc 62 3f b2 bc c8 cd ad bc 35 48 73 bd
       -0.024429142 -0.021758739 -0.021216288 -0.059395034
0001a0 47 0c d5 3c 64 fa 6d bd 5a f1 49 bd 4a 3a 5d bd
       0.02600683 -0.05810012 -0.049302436 -0.054010667
0001b0 f7 62 8d bc 1c 44 8e 3c c9 16 aa 3a d0 ca e4 bc
       -0.017259104 0.017366461 0.0012976761 -0.02792874
0001c0 40 2d 23 bc ad 4e fa bd ab 55 af bd 53 60 17 be
       -0.009959519 -0.122220375 -0.08561262 -0.14782839
0001d0 df d7 ad bd 00 40 ea 3c c0 fd 0a bd 12 43 53 3b
       -0.0848844 0.02859497 -0.0339334 0.0032236022
0001e0 dd c8 a8 bd 16 3c 40 3c 4f 0a 0f bd 29 57 56 bd
       -0.08241437 0.011733076 -0.03492194 -0.052329216
0001f0 28 25 5c 3d 8e c0 14 bd 86 09 53 3d 34 48 c1 3c
       0.053746372 -0.036316447 0.051522754 0.023594
000200 81 9d 88 bd 34 eb 77 bd 53 51 83 bd 76 5d ea 3b
       -0.066706665 -0.06052704 -0.06411996 0.0071522547
000210 24 2b 35 bc 7f 41 4f bc c2 81 e4 3d 95 8d b7 bb
       -0.011057649 -0.012649893 0.11157562 -0.0056015947
000220 6d 4f b2 bd f6 14 c1 bd 80 3c b8 bc 42 92 a7 3b
       -0.087065555 -0.09427826 -0.022489786 0.005113871
000230 62 a7 03 bd 22 94 28 bb c6 0f 0c be 1c 35 64 bd
       -0.03214205 -0.002572306 -0.13677892 -0.05571471
000240 4c c5 94 3c 37 c8 bf bd aa c4 16 bd 52 42 b9 3c
       0.018160485 -0.0936436 -0.036808647 0.022614632
000250 71 7e 0d 3d e3 ff be 3c dc 5f d4 3d 61 65 b4 3d
       0.034544412 0.023315376 0.10369846 0.08808399
000260 be 85 31 bc c6 3d 2d 3d 4c 2a b3 3c 6b 6d 3d 3d
       -0.010835109 0.04229524 0.021870755 0.046246927
000270 e9 68 a4 3c e0 d1 1c 3d d8 dc 6c 3d ba f3 a5 3d
       0.020069556 0.03828609 0.0578278 0.08103128
000280 68 bc 15 bc 4b 83 ba 3c 6c 7c 80 3d 75 14 18 3e
       -0.009139158 0.022767683 0.062737316 0.14851554
000290 c5 0a ac 3d 8f 23 55 3d 5e 65 09 bd 53 ac 3e bd
       0.084004916 0.052035864 -0.033543937 -0.04655106
0002a0 96 2e a6 bc dc 93 61 3d 15 0f 8c 3d 2c 24 06 bd
       -0.020285886 0.05507265 0.06838814 -0.03274934
0002b0 4d 0a f0 bb e7 81 bc bd 04 10 f2 3c 42 9f 2b 3a
       -0.0073254467 -0.092044644 0.029548652 0.00065468636
0002c0 35 39 bf 3c 1f b7 1f 3c cf 4d 7e bc b1 ac 2d bd
       0.023342708 0.009748249 -0.015521481 -0.04240102
0002d0 10 52 45 3b 9f f5 be 3c 0d 5d a3 bd ff ce e6 bc
       0.0030108728 0.02331048 -0.079767324 -0.028174875
0002e0 30 4d c1 bc 57 e9 ee 3c 77 c0 7d bc 4d ff 65 3d
       -0.023596376 0.029164 -0.015487782 0.056151677
0002f0 81 c8 4c 3c 71 1d 7b 3d f2 c7 34 bb 3f 21 c4 bc
       0.012498976 0.061307374 -0.0027584997 -0.023941634
000300 21 39 da 3c 1d 20 7c bc d5 c7 07 bc f9 81 c7 ba
       0.02663857 -0.015388516 -0.00828739 -0.001522123
000310 af 6b 8e bd a5 9c ba bc 87 9a 14 bd 7b c1 c9 bb
       -0.06954133 -0.022779772 -0.03628018 -0.006157098
000320 76 04 77 3d d3 17 53 3d d2 75 fa bc 2f e4 76 bd
       0.06030699 0.051536392 -0.03057376 -0.060276207
000330 78 33 57 3c 82 2d 4d 3c 2e 16 53 3d 3d 5a df 3d
       0.01313483 0.012523057 0.051534824 0.109058835
000340 f5 20 b0 3d 00 8f 3d bd e6 1d 4a bd 56 25 15 3c
       0.08600036 -0.046278954 -0.04934492 0.00910314
000350 09 5c fc 3c 6a 8e 22 3b cb 19 4f 3d 62 e4 17 bd
       0.030805605 0.0024804124 0.050561707 -0.037083037
000360 b0 43 b8 bd 83 52 eb bc c5 b2 57 3d b8 45 1c bd
       -0.08997285 -0.028725868 0.052660722 -0.038152426
000370 ff c2 13 be 9d 0d 18 be 83 c1 e0 bd 48 44 1c bd
       -0.14429854 -0.14848943 -0.109744094 -0.038151056
000380 a8 ab 0a bd a8 8c 15 3c 1d 89 42 bd 2e 71 37 bd
       -0.03385511 0.009127773 -0.047494043 -0.04478567
000390 e0 97 c9 bd 4d 6b ef bb fe 93 69 bd 7e 88 b0 bd
       -0.09843421 -0.0073064924 -0.057025902 -0.08619784
0003a0 ee d0 64 bd fb 67 1d 3c de 1b 8d bb 25 3d 72 3d
       -0.055863313 0.00960731 -0.0043063005 0.059140343
0003b0 29 af da bc e7 0b bf 3c 2b 4d 69 bd 17 36 5b bb
       -0.026694851 0.023321105 -0.05695836 -0.0033448988
0003c0 3a 4d ae 3c 29 5d 58 bd 7e a8 4d 3d 33 9f 45 bd
       0.021277059 -0.05282322 0.050209515 -0.048247527
0003d0 8c 24 15 bd 5a 5c 14 bd 80 80 0e 3a 7a 41 be bc
       -0.036411807 -0.036220886 0.0005436018 -0.023224581
0003e0 76 19 52 bc 9b da 7c 3c b9 37 41 3d 42 78 05 bd
       -0.012823453 0.015432979 0.047172282 -0.03258539
0003f0 2d 0e 9b bc 84 b7 91 3d e0 f6 17 bd 59 dd 2e 3d
       -0.018927658 0.07115081 -0.037100673 0.042691562

fc.bias f4 [64]
000000 ab 5b 94 bd e6 d4 58 bc 65 a4 75 3c 9b d7 c4 3b
       -0.07244047 -0.013234353 0.014992808 0.0060071475
000010 ac 8f dd 3c 0f 96 b0 bc a7 6f 7c 3c c0 7e 86 bb
       0.027046047 -0.021555929 0.015407479 -0.0041044652
000020 d0 e8 e2 bc 68 c3 a2 3c 7d 19 02 bd d5 86 16 bd
       -0.027698904 0.019868568 -0.03176259 -0.03674968
000030 38 1c 70 bc 37 72 02 3c bb fc 73 bd 6b a5 a8 3c
       -0.014655165 0.007961801 -0.059567194 0.02058669
000040 c5 37 b5 bc ee f8 65 3c 92 82 94 bc c7 68 ed 3c
       -0.02212132 0.0140364 -0.018128667 0.028980626
000050 5e d5 f7 3c 2e 98 23 3c 3b fd 8a 3d e7 d0 1a bd
       0.030253109 0.009985013 0.06786581 -0.03779688
000060 3c 71 a5 bb 87 13 30 3a 8b b7 2f 3d a2 bc 91 3b
       -0.005048899 0.0006716777 0.04289965 0.0044475356
000070 ad ad e1 bc c8 cc 0f bd fa c1 ba 3b 94 fe 0d bc
       -0.027548635 -0.035107404 0.0056993933 -0.008666653
000080 f6 66 00 3d e3 e3 7c bc 6f 5f e6 bc b6 5d 35 3b
       0.03134819 -0.015435192 -0.028121678 0.0027674264
000090 c0 33 8b bc a7 66 91 3c f9 b4 ef bc de ae 1f 3c
       -0.01699245 0.017749144 -0.0292611 0.009746281
0000a0 9d e0 67 3c 5e 95 fb bc a7 a7 22 bd fc c2 8f bc
       0.014152673 -0.030710872 -0.039710667 -0.01754903
0000b0 05 c3 ed 3b 73 6d 84 bc bf 91 7e 3c 1d 33 94 3c
       0.007255914 -0.01616547 0.015537678 0.018090779
0000c0 2e 47 06 3d 84 d6 ce bc f6 6f 88 3c d0 2a cf 3b
       0.032782726 -0.025248773 0.01665495 0.0063222423
0000d0 ad 3d 17 3d f8 ae 6c 3d e4 cf 61 3b a3 74 90 3c
       0.036924053 0.05778405 0.0034456188 0.017633742
0000e0 bf e3 89 bc 12 8f 69 3d 3b 9c 7c bc 90 c0 4a 3d
       -0.01683223 0.057021208 -0.015418108 0.04950005
0000f0 47 b4 16 3c 3e 55 fc bc fe d6 40 bc b1 6f 20 3b
       0.009198255 -0.030802365 -0.011770008 0.0024480636

hidden.weight f4 [10, 64]
000000 87 72 f8 bd ed 96 f4 bc 57 c2 cb 3d a4 9a 3a bd
       -0.12131219 -0.029857123 0.09949177 -0.045557633
000010 b1 54 12 3e b9 c0 fd bd 3d 67 06 3e 48 4b 6e 3d
       0.1429012 -0.123902746 0.1312532 0.058177263
000020 df 02 1c 3c 36 9b 0f bd b5 cb f7 3d 73 1f fd bd
       0.009522169 -0.03506013 0.12099401 -0.12359514
000030 7d 1d b0 3d cd 9c 63 bd 9f a1 0c be 54 1a cf bd
       0.085993744 -0.05556946 -0.13733529 -0.101124436
000040 dd ba 2a 3d 93 3a fc bc 29 05 4f bd 1f 3b 39 bd
       0.041682113 -0.03078965 -0.05054203 -0.045222398
000050 e9 5e 4b bd 8d 7f c0 bc a3 d1 6e bc 4f d2 09 be
       -0.04965106 -0.023498321 -0.0145763485 -0.13459133
000060 57 a0 f2 bc 93 c3 f0 3d 46 96 3a 3c cc b1 cb bd
       -0.029617472 0.11756053 0.011388367 -0.099460214
000070 a1 ba b3 bc d7 29 d1 3c b2 11 14 3e 30 35 f0 3d
       -0.021939578 0.025532646 0.14459875 0.11728895
000080 7f 63 fd 3d fc 19 44 3d 9a e9 6b bd 2a fd 2f bc
       0.12372493 0.047876343 -0.057595827 -0.010741511
000090 59 c4 f6 3d 19 0e 14 be cb a2 fd 3c 38 b2 73 3d
       0.12049169 -0.14458503 0.030961415 0.059496135
0000a0 c8 23 29 bd 0c c0 10 3e 1d 47 fb bd c2 27 af 3d
       -0.04129389 0.1413576 -0.12269423 0.08552505
0000b0 55 d1 f2 bd cf 22 a0 bd 3d fd 8f 3c e7 fb a5 bd
       -0.11856333 -0.07819139 0.017576808 -0.08104687
0000c0 ab 36 fe 3c 63 cb 33 3b 76 74 b2 3d 62 db 14 3d
       0.031031927 0.002743446 0.087136194 0.036342032
0000d0 45 8c d8 bd 68 65 64 bb 96 40 96 3c fa 40 96 3a
       -0.10573629 -0.0034850482 0.018341344 0.0011463456
0000e0 93 90 59 bc 50 84 07 3e 39 dd f1 3c 9b 20 1a 3e
       -0.013279098 0.13234067 0.029524432 0.150515
0000f0 f4 c1 11 be 3b ad 50 3d a9 84 8b 3c d3 69 85 3d
       -0.14234143 0.050946455 0.01703103 0.06514325
000100 3e 43 30 be 18 c7 71 3c 25 62 0b be a7 39 1c 3d
       -0.17213151 0.01475694 -0.13611658 0.03814092
000110 a1 88 93 bd 67 ff e1 bd a5 9e 9a 3d 0d 1b 5f 3c
       -0.07203794 -0.11035042 0.0754979 0.013617289
000120 55 ab 0c be 34 f4 e5 3d 30 c7 12 be 67 43 22 bc
       -0.13737233 0.11228219 -0.14333797 -0.009903765
000130 5c 8f e9 bd da 34 85 bd c0 12 10 be 9f 82 fb 3d
       -0.11404297 -0.06504221 -0.14069653 0.12280773
000140 64 46 d2 bd da 6e 11 bc 23 7c 91 bc 81 e0 4f 3b
       -0.10267332 -0.008876527 -0.017759388 0.0031719508
000150 70 d7 24 3e 08 e3 41 3d f5 6d 9d 3d fe 1e 09 bd
       0.16097808 0.047335654 0.07686988 -0.033476822
000160 62 00 9d 3d 01 d2 53 3d e4 93 c5 bc d0 bf 2d 3b
       0.07666089 0.051713947 -0.024118371 0.0026512034
000170 0e 7a bf bb e9 b2 13 be ec 41 8f 3c fe 11 04 be
       -0.0058434075 -0.14423718 0.017487489 -0.12897488
000180 aa 73 86 3d 7f e5 00 bd 37 2c b3 bd 46 c6 86 3d
       0.0656503 -0.031468865 -0.08748668 0.065807864
000190 c4 97 e1 bd d3 0e 00 3e f2 94 0e bc 60 aa 9e bc
       -0.11015275 0.12505655 -0.0087025035 -0.01936835
0001a0 b1 49 ff bc fc 0c f5 bd 51 25 0e bd fd f3 7a 3d
       -0.031163068 -0.11965367 -0.034703556 0.06126784
0001b0 e2 13 11 3e 5d 20 0c 3e 2c 23 13 3e 5d 75 9e 3d
       0.14167741 0.1368422 0.14368886 0.07737229
0001c0 10 ce 42 3e 96 44 ed bd b1 3d 3b bd 9e 53 e9 ba
       0.19023919 -0.11585347 -0.04571313 -0.0017801409
0001d0 a0 5a 83 3d 13 fa 43 3e 15 23 15 39 0f 4d fd bb
       0.0641377 0.19138364 0.00014222816 -0.0077301334
0001e0 83 c7 ac bc b9 3a f7 3d 0b 97 a0 bb 4d 3e 0a 3d
       -0.021091228 0.12071747 -0.004900818 0.03375082
0001f0 92 f5 d1 3d 5c 21 72 bd bd 0b 0e be b8 24 af 3d
       0.10251917 -0.059113845 -0.13871665 0.085519254
000200 cc d1 12 be 9e 50 d1 3c 29 11 4a bd 4b 68 05 bd
       -0.14337844 0.025551137 -0.04933277 -0.032570165
000210 2c ed aa bd a8 2b 0a be 91 69 53 bd 44 2d d6 3c
       -0.08346018 -0.13493216 -0.051614348 0.026144631
000220 ce 35 38 bd 6b 14 a5 bd c7 74 e8 bc b1 d0 f2 3b
       -0.044973187 -0.08060535 -0.028375996 0.007410132
000230 5f 61 d6 bd 22 98 e4 3d da a9 86 bd 40 8e 37 3d
       -0.10467791 0.111618295 -0.06575365 0.044813395
000240 e9 da fc 3d 17 81 0e 3e 84 8a de 3d 7c 1f d9 bc
       0.12346441 0.13916431 0.108662635 -0.02650427
000250 23 e6 0f bd 61 d0 a0 3d ac f8 76 bc 8a 6b 08 3c
       -0.035131585 0.07852245 -0.015073936 0.008326421
000260 c4 1f a4 3d de d6 60 3c 4d 3a 9d 3d 68 3c 7e bd
       0.08013871 0.013723103 0.076771356 -0.062069327
000270 f5 ea e9 bd 99 3f da 3d 5b eb a9 bd e2 bc ca bd
       -0.114217676 0.106566615 -0.082968436 -0.09899308
000280 22 da 0f bd 41 f3 e5 3d 90 d2 56 bd 78 84 ea bc
       -0.035120137 0.112280376 -0.0524469 -0.02862762
000290 14 d3 87 3d 23 fe eb bd 76 88 fd bc a8 30 9e 3d
       0.06632057 -0.11523082 -0.030948859 0.07724124
0002a0 61 16 21 bd cd ac b7 bd d9 aa 73 bd 18 d5 cf bd
       -0.039327983 -0.08968506 -0.059489105 -0.10148066
0002b0 79 91 fe 3d 04 a4 10 3d dd 2d cd 3c 75 fa 1b 3d
       0.124300905 0.035312667 0.025046283 0.03808065
0002c0 f5 7a 0f 3e 7b c8 82 3d 41 8c e5 3b e9 83 9c 3d
       0.14011748 0.06385895 0.007005245 0.07642347
0002d0 c4 72 14 3d 96 1e a2 bd 86 12 aa 3d bb 6f 6c 3d
       0.03624226 -0.0791599 0.08304314 0.057723742
0002e0 f6 5b 08 3d 22 e4 c7 3d c5 fb f8 bd 47 d8 58 3b
       0.033290826 0.0976031 -0.12157396 0.0033087896
0002f0 83 3d 09 be 39 18 8f bd 54 b0 2e bd 26 eb be bd
       -0.13402371 -0.06987042 -0.04264863 -0.09322195
000300 6c 57 71 bc 3a 96 be bd e0 6f 25 3b fe e5 5f 3d
       -0.014730316 -0.09305997 0.0025243685 0.054662697
000310 ec 34 08 be 3f 30 18 3e 7b 9e c5 3d 99 a8 b3 3d
       -0.13301438 0.14862154 0.096493684 0.08772392
000320 26 7c 02 3e 22 8d 12 3e d7 02 c4 bd a9 27 ae 3d
       0.12742671 0.1431165 -0.09570854 0.08503658
000330 a6 a5 b6 3d 12 6f 0d 3e f3 4b 6f ba 78 2a 44 bd
       0.08918314 0.13811901 -0.0009128444 -0.047892064
000340 c3 8d 08 3e 56 22 e7 bc 78 cc e7 3c 80 83 47 bd
       0.13335328 -0.028214615 0.02829574 -0.048709393
000350 5e 25 3c bd 2d 3a be bc bd 72 1c 3d 2c cc 1d 3e
       -0.045934074 -0.0232211 0.03819536 0.15409917
000360 ba 19 d6 bb 1c e3 65 3d 44 9a 67 3d a8 da 3c 3d
       -0.0065338286 0.05612479 0.056543604 0.046106964
000370 91 6a 0c 3d 0c 07 7c 3b b7 85 97 bd c0 41 06 be
       0.034281317 0.0038456349 -0.07398551 -0.13111019
000380 85 76 17 3e 72 6d 64 bd 6b df bf 3b f4 59 f0 bd
       0.14791305 -0.055768438 0.005855491 -0.11735907
000390 77 51 b6 3d 97 3f 05 3e f1 db 38 bd 48 a0 99 3d
       0.08902257 0.13012539 -0.045131627 0.07501274
0003a0 6c 1c 6e bd 27 f8 9c bd 54 84 a3 bd 19 c7 e0 bd
       -0.058132574 -0.07664519 -0.07984224 -0.10975475
0003b0 9b 8d ac bd 1f bc aa 3d fb 0b c2 3d ba 85 70 bd
       -0.084254466 0.083366625 0.09474941 -0.05872128
0003c0 7d 2f 38 bb 91 5f 0e be 8c 44 e2 3d 2f af 1d 3d
       -0.0028104477 -0.13903643 0.110482305 0.038497146
0003d0 d9 3d ff bd 8d 9b a3 bd a6 d3 9a 3d 5c 84 f5 3d
       -0.124629684 -0.07988653 0.075599 0.11988136
0003e0 67 0e f4 3d 70 a2 46 bd c7 42 28 bd 4c 4a 49 bd
       0.119168095 -0.048494756 -0.04107931 -0.04914312
0003f0 a1 7a 15 bc eb a1 11 be 41 23 69 bd 05 7d 8c b9
       -0.009123475 -0.14221923 -0.056918386 -0.00026796028

hidden.bias f4 [10]
000000 73 35 cf bd da 31 cd 3d 33 e8 5f 3c 45 5a 53 3d
       -0.101176165 0.10019274 0.0136662 0.05159976
000010 a3 9a ca bd fa 22 72 3d c7 13 6a bd 86 c7 a6 bb
       -0.09892776 0.059115387 -0.057147767 -0.005089703
000020 71 99 b2 bd bf 74 e5 3d
       -0.08720673 0.11203908
